data.pth (torch, 15103 bytes, 6 tensors)

l1.weight f4 [8, 229]
00000000: cc30 8e3f 4406 443b 0361 d7bd b136 c33f
00000010: 1419 06be d4b2 4b40 3565 7abf 3e66 bbbe
00000020: 27b5 6240 8cbd 25bf fc5a 1640 0bc1 c03f
00000030: f4b7 99be 5377 76be d3f0 3040 92b4 21bf
00000040: bb7f 2240 672e 75be 6f4e 923e 787a 4640
00000050: 709d 73be bffb f5be a0eb 22bf 1f1d 143f
00000060: 5374 adbe eeb2 6240 5589 b3be aebd 87bd
00000070: 60c7 c43f 75f1 963e 37ff a43f f3a8 773e
00000080: 03bd 27be 08f2 b3bf b0fa 06bf c550 763f
00000090: 5558 23bf 0a3c 42bf 6360 03be a91c 0d40
000000a0: 8f2d 673e 6065 78be ba7b c3be 70eb e03f
000000b0: 2c40 d93f 5958 65be 4164 0140 bf7c 23bf
000000c0: 1fb7 21be 7725 1140 4cd0 993f bde0 96be
000000d0: 51ef 473f 1e72 413e 5578 28bf 130d 1c40
000000e0: 08b4 2fbe 5f65 21bf 39ea 44bf 8daa ee3f
000000f0: f013 59c0 1b99 ac3f bce9 893f e53d c3be
00000100: 8cd7 acbe b36a 253f 25e4 a6be e4a3 a3be
00000110: b304 d4be c344 a2bf 5068 343f 80f0 debd
00000120: dabf 8bbc 17d2 713f c8a3 c7bf 8cad aebe
00000130: 4cf3 d6bc f14a 8a3e 7bbd 21bf d580 423f
00000140: efc2 98be 5962 2a3e 4de2 e53c 4669 7abe
00000150: 9bb5 4240 d018 1e40 9ff5 e73c 2f01 2e40
00000160: b41b 433f 7a39 eb3f c48b 10bf a11d 22bf
00000170: 7fee 203f 042a 173f 4430 61bf 9c6f 3c40
00000180: 6542 123f f0ef 10bf ffe6 5c3f 88e0 8cbe
00000190: fd0f 313f f87f 153e ced3 a33f dffe 323e
000001a0: 6c3e e13f 5e93 adbe 3a7c c7be 5418 77bf
000001b0: a33c 89be fd3a 96be 77a5 20bf 0116 283f
000001c0: 8b0d 0740 ee15 04bf ab8b 4c3f 1345 333f
000001d0: d323 77be ef94 323f b4c8 fbbe 2f17 0f40
000001e0: 9458 90be 5eba 63be 0448 b9be 9d07 aebe
000001f0: de8b 1bbf ccd4 06bf f1d9 0c40 5e54 c6bd
00000200: 20ec 85bf 4fce d03e 20d6 a43f 56bb 283f
00000210: 47e8 a73f b077 c83f 30d0 01be 8778 d4ba
00000220: 38e7 563f 3e6c 8abe 298c 9cbf 16aa ed3f
00000230: 4f87 5d3e 5166 0f3e ec14 8abe c721 0a40
00000240: 887a 99bc 2029 babc 75ba 6f40 4bd9 1440
00000250: 1174 34bf f05e 773f 43af 77bd 5fa0 b6be
00000260: fe95 493e 4862 37bf 0773 303f 6733 92bf
00000270: 6e51 92bf 43bf 46bf 9a82 883f 9f12 163f
00000280: ccba 703e ba30 68bd 48d3 adbe 6377 bdbf
00000290: 29ad 32bf 137f 6240 6271 91be ade8 92be
000002a0: 32c5 563e f971 31bf f086 a7bf 3bea f1bf
000002b0: 4223 c53f 66cf 21bf 712a 89be f7fb 21bf
000002c0: 1362 16be 5134 d83e b15e 4840 9ca7 c7bf
000002d0: 2af2 95be 0f64 02bd e87d 23bf ae8c 0c40
000002e0: e969 4f3f 2bed b7be 452a 91be e52e d4be
000002f0: 3b1c 96be 61d8 a5be 6255 abbe 9984 0040
00000300: 5f21 21bf 444d 3bbf 090b 5bbf a848 093e
00000310: c108 ec3e e5ff c43d 2f63 a23f b204 ab3e
00000320: 5774 f23f b65f fbbf 1c60 393e 333c 8fbe
00000330: 59c1 2e3e cf1b f23f f808 1e3e 3600 22bf
00000340: c035 8a3e a8ec 7cbd 4a0c 823f f6b4 94be
00000350: 5a3b 2340 3bc4 eabe 86fc 8fbe 2175 f13f
00000360: 2170 2e3f 6e74 abbe bd2f 97be 4ef7 5d3f
00000370: e4cf 54bd cb4d 37bf c2d9 5b40 c2e9 0ebf
00000380: 9f1d d13e 5314 743f 28f2 293f 7cd1 bf3e
00000390: c277 c13e 59c4 33bf 3ffc b83e b35a ca3e
000003a0: b67f b4bf 7ea5 163f 6a80 7bbf 741e 9a3f
000003b0: c8c3 583e b2a5 03c0 0c8f 7f40 e68c c0bf
000003c0: c857 9cbf 0022 21be aa23 203d 6026 1fc0
000003d0: dfd6 1d40 a19f bdbf ccc5 82bf 14a4 143e
000003e0: 56d1 b1bf 07e7 7e3f fd3c 37be 9e6f 3d3f
000003f0: 30b8 133f 0c92 643f eade 03c0 4ed4 df3f
1.1108642 0.0029910961 -0.105165504 1.5251065 -0.13095504 3.1827898 -0.9781068 -0.36601442
3.5423067 -0.6474235 2.3493032 1.5058912 -0.30023158 -0.24068956 2.7646987 -0.63166153
2.539046 -0.23943482 0.28575465 3.101225 -0.23790526 -0.4804363 -0.63640785 0.57856935
-0.3387781 3.542171 -0.35065714 -0.066279754 1.5373344 0.29481092 1.2890385 0.24185543
-0.16380696 -1.4058237 -0.5272627 0.96216995 -0.6380666 -0.7587286 -0.12829737 2.2048743
0.22575973 -0.24257421 -0.38180333 1.757185 1.6972709 -0.22396983 2.021744 -0.6386222
-0.15792511 2.2679117 1.2016692 -0.29468337 0.7809954 0.18891189 -0.6580861 2.438298
-0.1715852 -0.63045305 -0.76919895 1.8645798 -3.391842 1.3484224 1.0774455 -0.3813316
-0.337582 0.64615935 -0.32595935 -0.31960976 -0.41409835 -1.2677234 0.7047167 -0.108857155
-0.017059255 0.94461197 -1.5596857 -0.3411678 -0.02623906 0.270103 -0.6317975 0.7597783
-0.29836223 0.16639079 0.02806201 -0.24454221 3.0423343 2.4702644 0.028315363 2.7188222
0.76214147 1.8376915 -0.56463265 -0.6332646 0.62863916 0.59048486 -0.8796427 2.944312
0.5713256 -0.56616116 0.8628997 -0.27515054 0.6916502 0.14599597 1.2799013 0.17480038
1.7597175 -0.33901495 -0.38961965 -0.96521497 -0.26804075 -0.2934188 -0.6275248 0.65658575
2.1102016 -0.5159596 0.79900616 0.70027274 -0.2413476 0.69758505 -0.49176562 2.23579
-0.2819258 -0.22239062 -0.36187756 -0.33990183 -0.60760295 -0.5266845 2.200802 -0.096840605
-1.0462685 0.407824 1.2877846 0.6591085 1.311776 1.5661526 -0.12677073 -0.0016210236
0.8394656 -0.27035707 -1.2230273 1.8567531 0.21633647 0.14003874 -0.26969087 2.1583116
-0.018735185 -0.022724688 3.7457554 2.3257625 -0.70489603 0.9662924 -0.060469877 -0.35669228
0.19686124 -0.7163434 0.6892552 -1.1421937 -1.14311 -0.7763559 1.0664856 0.58622164
0.23508757 -0.056687094 -0.33950257 -1.4802059 -0.6979547 3.539006 -0.28406817 -0.28693143
0.20973662 -0.69314533 -1.3088055 -1.8899606 1.5401385 -0.6320709 -0.26790193 -0.6327509
-0.1468585 0.42227414 3.1307795 -1.5598025 -0.2928632 -0.031833705 -0.6386399 2.1960864
0.8102098 -0.35923132 -0.28352562 -0.41442028 -0.29318413 -0.32391647 -0.3346358 2.008093
-0.62941545 -0.73164773 -0.85563713 0.13406622 0.4610043 0.096191205 1.2686518 0.3340202
1.8941754 -1.9638584 0.18103069 -0.27975616 0.17065944 1.8914737 0.15433109 -0.6328157
0.26994133 -0.06174913 1.016 -0.29044312 2.5504975 -0.45852837 -0.28122348 1.886387
0.68139845 -0.33487266 -0.2952861 0.8670548 -0.051956072 -0.7160308 3.435166 -0.55825436
0.40842912 0.9534351 0.66385126 0.3746451 0.3778668 -0.7022148 0.36129948 0.39522323
-1.4101474 0.5884627 -0.9824282 1.2040544 0.21168435 -2.0569882 3.993106 -1.5042999
-1.2214289 -0.15735626 0.039096512 -2.4867172 2.4662397 -1.481434 -1.0216613 0.14515716
-1.3892009 0.9957127 -0.17894359 0.7399844 0.5770292 0.8928535 -2.0604806 1.7486665

l1.bias f4 [8]
00000000: f3eb 103f 4b62 9d3f 6259 983f 91e7 153f
00000010: 4e01 7a3f 6c51 e13e 7882 593f c9d0 8c3f
0.5661003 1.2295622 1.1902277 0.5855647 0.9765824 0.44007432 0.84964705 1.1001216

l2.weight f4 [8, 8]
00000000: 70eb 363f 1a9b bb3d 8e5d 763f 2e3f 6b3f
00000010: adb5 843f c88e ac3f 2de2 8dbf 9a3d b0be
00000020: 5f3d 883f baf0 5cbf dd4c e63e 19d5 c83f
00000030: d68b de3e 5301 1140 5f51 8f3f 9a8a 3dbf
00000040: 1880 623f 6012 a43f 857a 45bf 617e 4dbf
00000050: 3250 2f40 188c 083f ea0b dcbf 0e2b ac3f
00000060: b0a8 5e3f a524 34bf 1c05 2140 4dd0 84bf
00000070: 5a1c 37bf 0558 3cbf 8357 823f 2493 0340
00000080: eec7 a13d 5498 f13f 7ed8 0840 5819 98bf
00000090: 3900 533f b25e 573f f92d ed3f e576 94bf
000000a0: 9a56 0b40 6cab 81bf 3fb3 9bbe 4255 083f
000000b0: 2410 fcbd 708f ac3f eefa 6a3f 35af ea3f
000000c0: 1977 a6bf 04e7 1840 d80c 363f 9f1a 3e40
000000d0: d5bd 46be 0afe b6bf 16e6 043f ed8c cf3f
000000e0: e05e 3d3e 6f75 82be c894 e4bd 8093 8abe
000000f0: 3696 83be f1ab 683e e25d 9dbe 6c78 c7be
0.71453 0.09160443 0.96236503 0.9189328 1.0367943 1.3481073 -1.1084648 -0.34421998
1.0643729 -0.8630482 0.44980517 1.5690032 0.4346606 2.2657058 1.1196707 -0.74039614
0.88476706 1.2818108 -0.77140075 -0.80270964 2.7392697 0.53338766 -1.7191136 1.3450639
0.86976147 -0.70368415 2.5159369 -1.0376068 -0.71527636 -0.7357181 1.0182956 2.0558558
0.07899462 1.8874612 2.1382136 -1.1882734 0.82422215 0.8412887 1.8529655 -1.1598784
2.1771607 -1.0130439 -0.3041019 0.53255093 -0.12307766 1.3481274 0.9178914 1.8334719
-1.3005096 2.3891 0.7111335 2.9703748 -0.19408353 -1.4296277 0.51913583 1.6214882
0.18493223 -0.2548022 -0.1116119 -0.2706566 -0.2570054 0.2272184 -0.3073569 -0.38959062

l2.bias f4 [8]
00000000: 6756 6abf 5089 e2be a7b4 9b3f 048e 6f3f
00000010: bbc2 5b3f fed1 553c c5f3 363f 23ad a0be
-0.9153809 -0.44245386 1.2164506 0.93576074 0.8584401 0.013050554 0.7146571 -0.31382093

l3.weight f4 [46, 8]
00000000: 0dfe dabf 049b 40bf 2ec8 c7be 69cc 543f
00000010: 024c 143f a681 8abf 9011 e3be 552e 243d
00000020: b2b4 633f 83ae 30c0 d4a6 803f 96d2 a4c0
00000030: 0b8d 1a3f 243b 8fc0 26ec 99be 51c0 a8be
00000040: c197 f5bf 28db 2f3f 953d 73c0 79dc e7bf
00000050: a28d 0dc0 2c82 bf3d 08c5 e73e 30eb 043e
00000060: b386 b3bc a481 503f 2cfd 23c0 f39b 7bc0
00000070: 856e 11bf adb6 0e3f 3447 86bf 1f65 3fbe
00000080: 6b4a c5c0 6940 933f 5358 22c0 ce70 28bf
00000090: d851 183f 5522 9d3f 3dac aec0 a37d 95bd
000000a0: 39da 45bf 0e7a 8cbf 178a 183f c21f 0e3f
000000b0: eb2c 26c0 52e3 9a3e fb8b 4ebe 0605 243e
000000c0: 5b95 67bd bcb4 1bbe 81aa 10c0 5bf1 933f
000000d0: ccf5 87bf c30d 4b3f ecd6 9bc0 d198 4e3e
000000e0: 84c4 36bf 7e54 b8bf 1825 b5bf ddd3 f03e
000000f0: d060 08c0 497f 12be fb82 743f 95ef e53d
00000100: b86e a3c0 0411 d2c0 618f 4d3f 7e30 873d
00000110: bb9d c93e 5d43 83c0 d16b 493f 7384 31be
00000120: 473a d1c0 00ee 8b3e 8d81 6cc0 32ca 4fbd
00000130: 92e7 b5bf d425 9ebe 2b4f 303f 5bff 8dbe
00000140: 56cd ecbf 2782 21c0 517e 153f 7f10 8bbf
00000150: f154 ae3f 0f98 c6c0 60fb c8be 8671 713c
00000160: 22e3 6ec0 31e4 0abf 8501 223e 0a53 92be
00000170: c896 1b3e e71e bfbe 4b3b d63e 42bb 033a
00000180: af1d 4fbe 1ddf 273d 6c9a 83bf 7c3e ae3e
00000190: ebc2 e3bf ac25 763f 9698 a9bf 21ef a3be
000001a0: a4a5 9bbe e889 12c0 82ea 4e3f 8fab 97bd
000001b0: 7f39 213e 0755 88be ccdf d6be cc2a 33be
000001c0: 3e73 b93d 7f6a 85bf c603 da3d 91c1 7d3f
000001d0: 66a0 d4be 852a 9e3e cd8e 50c0 3ff6 613e
000001e0: 0fd4 b03d 32dd 5e3d 6270 0dbf 7b8b c2bd
000001f0: 7b3c 013f dfce 5e3e b248 10c0 ce98 efbd
00000200: da81 51be fe5e 28be a191 db3e 55a6 d0be
00000210: 7dd7 9fbf 06fa a6be a114 103e 025d fbbb
00000220: a62c 03c0 a5c3 b63e c519 63c0 5d53 263f
00000230: 6a91 26c0 2586 4c3f a91f 54be abb5 11be
00000240: e556 6c3f 6a1c a9bd 0742 af3e 490f 61bf
00000250: 2ccf cc3e 2e04 86bf 8e38 9bc0 6a36 0c3e
00000260: cec5 ef3e bc45 3c3f 3d71 3939 aeac 24bf
00000270: b013 b4bf ed66 bc3e 43f5 22c0 529d 8dbe
00000280: 8aba b1bc 087f 2e3e 7e90 423f 50aa b9c0
00000290: 28ac 9dbf 499b 1c3f 63c2 a7bf 2556 36be
000002a0: 5cd2 0fbf e862 1ebf d372 69c0 ac1b 0ac0
000002b0: 8a7e b53e 7bdb 0ac0 1fc7 8d3f 398a 5abc
000002c0: d939 febf e151 b7bf d0bd 9ac0 3463 173f
000002d0: ea76 57bd 9b53 b9bf ecab 893f bc0b 1e3e
000002e0: f14f d2c0 4cca 86c0 37e5 14c0 7264 803f
000002f0: 7e38 803f 0391 87c0 f6f0 1b3f 40e7 453e
00000300: 9461 10c0 e41b 0dbe df65 e6bf 29e8 403f
00000310: c433 4a3e 0f67 b93e 0e30 59bf 0612 85bd
00000320: 14a2 eebe f795 d1be 91e7 ab3f 1cf4 6ec0
00000330: 2ab2 ac3e 29f7 b3bc a92a 5ac0 3f64 0a3e
00000340: e3ee 233f 644e 82be ceac e43e 1df3 3dc0
00000350: d974 a73e 25c0 96bf d0e1 8cbf ba0f 063e
00000360: fdd8 ef3d 6ce7 31bf a684 bcbf 8fca db3e
00000370: 3851 18bf 7f7c a03e e1f3 033e 9f68 9cbd
00000380: 44ed 68be 4f3b 08bf 51e7 853f 7c08 cc3d
00000390: ab9d 3bc0 e1e1 2c3f 0344 4ac0 a3d1 213d
000003a0: 28f3 763f 40d8 f2bd 71f5 60bf 47ca f53e
000003b0: 7ee1 43bf e1ab 4bbd c141 a3bf 4c01 163c
000003c0: d497 543f cbb1 eb3e 8170 b5bf b437 8fbf
000003d0: 707b 73be b73c a2bd 706c a7bf a25f afbe
000003e0: 3a43 a63d 8fc8 33bf 77da 0ebe fbfc 833c
000003f0: 64c1 9c3e fb23 dbbf b5a3 a53d 2afd 6cbb
-1.710878 -0.75236535 -0.39019912 0.83124405 0.5792848 -1.0820816 -0.44349337 0.04008325
0.88947594 -2.7606514 1.0050912 -5.1507063 0.60371464 -4.4759693 -0.3006298 -0.32959226
-1.9186937 0.6869378 -3.8006337 -1.8114158 -2.2117696 0.09351 0.4526751 0.12980342
-0.021914816 0.81447816 -2.5623274 -3.9313934 -0.56809264 0.5574749 -1.049048 -0.18690918
-6.165334 1.1504031 -2.536641 -0.65797126 0.59499884 1.2276102 -5.458525 -0.07299354
-0.77286106 -1.0974748 0.5958571 0.5551721 -2.5964916 0.30251557 -0.20170586 0.16017541
-0.05653892 -0.15205663 -2.2604067 1.1558031 -1.0621886 0.79317874 -4.8699856 0.20175482
-0.7139361 -1.4400785 -1.4151945 0.4703664 -2.130909 -0.14306368 0.9551236 0.11227337
-5.1072655 -6.564577 0.80296904 0.06601046 0.3937815 -4.101973 0.7868014 -0.17335682
-6.538364 0.27330017 -3.6954072 -0.050729938 -1.4211295 -0.30888236 0.688708 -0.27733883
-1.8500164 -2.5235689 0.5839587 -1.0864409 1.3619672 -6.206062 -0.39254284 0.014736539
-3.732613 -0.5425444 0.15820892 -0.2857898 0.15194237 -0.37328264 0.41842112 0.0005025157
-0.20226167 0.04098426 -1.0281501 0.34032047 -1.7793859 0.9615123 -1.324969 -0.32018378
-0.3039981 -2.2896671 0.8082658 -0.07405769 0.1574459 -0.2662737 -0.41967618 -0.17496794
0.09055184 -1.0423125 0.10645251 0.99123484 -0.41528624 0.30891815 -3.2587159 0.22066592
0.08634197 0.054410167 -0.5524961 -0.0949926 0.5048291 0.21758603 -2.254437 -0.11699067
-0.2045969 -0.16442487 0.42884544 -0.407519 -1.2487637 -0.32612628 0.1407037 -0.0076709995
-2.0496001 0.3569614 -3.5484478 0.6497095 -2.6026254 0.7989219 -0.20715202 -0.14229457
0.9232009 -0.08257373 0.34230062 -0.8791395 0.4000181 -1.0470026 -4.8506536 0.13692632
0.468306 0.73543906 0.0001768516 -0.6432599 -1.4068508 0.36797276 -2.5462196 -0.27659088
-0.021695394 0.17040646 0.7600173 -5.80204 -1.2318163 0.61174446 -1.3106197 -0.17806299
-0.5618036 -0.6186967 -3.6476333 -2.157939 0.35448104 -2.169646 1.1076392 -0.013338619
-1.9861404 -1.4321862 -4.8356705 0.59135747 -0.05260364 -1.4478639 1.0755591 0.15434164
-6.5722585 -4.2121944 -2.3264902 1.0030653 1.001724 -4.2364516 0.6091455 0.19326496
-2.2559557 -0.1378017 -1.7999839 0.7535425 0.1974631 0.3621144 -0.8483895 -0.06497578
-0.4660803 -0.40934727 1.3430043 -3.7336493 0.33729678 -0.021968441 -3.4088538 0.13514803
0.6403639 -0.25450432 0.4466309 -2.9679635 0.32706335 -1.1777388 -1.1006413 0.13091937
0.11711309 -0.69493747 -1.4727981 0.42927977 -0.5949893 0.31344983 0.12886001 -0.076371424
-0.2274676 -0.532155 1.0461217 0.09962556 -2.9314983 0.67532164 -3.160401 0.039506566
0.96464777 -0.11857653 -0.87874514 0.48005888 -0.7651595 -0.049724463 -1.2754441 0.009155583
0.8304417 0.46034083 -1.4174958 -1.1188874 -0.23777556 -0.07921737 -1.3079967 -0.3425265
0.08118291 -0.70227903 -0.13950525 0.016111841 0.30616295 -1.7120355 0.08087865 -0.003616164

l3.bias f4 [46]
00000000: 0178 ec3e 5c75 0e3f 7b43 cd3e ebd3 d7be
00000010: c9e9 473f 2ef8 7f3d 8010 26bf 0fb9 1cbf
00000020: 2b3c 2e3f afe5 49be 03b9 1bbf 3969 c53e
00000030: d6c2 12bf fbcf febd 8d7e b7bf b1c2 a5bc
00000040: 97ad 90be 8490 efbe 0fe3 1abf bd07 ca3e
00000050: 5f2c 66bf f973 d9be f762 d3bb 108a c73e
00000060: 3248 293e e72a 353f a6d3 c4be 5c0c 06c0
00000070: 0b34 09bd 8c4d 16c0 a627 d4bf 5865 69be
00000080: 4d56 60bf b0d8 62bf 91fb 01c0 4dd1 55bf
00000090: 60de 713e fba3 04be 876e a53e b757 c03d
000000a0: 15e9 a2be f7e9 a3be 0ac2 44be 2c0f 9bbe
000000b0: 34a1 0abf dec1 193f
0.46185306 0.55647826 0.40090546 -0.42153868 0.780911 0.062492542 -0.64868927 -0.61219877
0.6806056 -0.19716524 -0.6082918 0.3855684 -0.57328546 -0.12442013 -1.4335495 -0.020234438
-0.2825744 -0.46789944 -0.60502714 0.3945903 -0.89911455 -0.42471293 -0.0064510065 0.3897252
0.16531447 0.7076859 -0.38442725 -2.0945044 -0.033496898 -2.348483 -1.65746 -0.22792566
-0.87631685 -0.8861189 -2.0309794 -0.8352249 0.23619986 -0.12953179 0.32310888 0.0939173
-0.31818452 -0.3201444 -0.19214645 -0.30285013 -0.54152226 0.6006144
